20260305-02:14:06 ============================================================
20260305-02:14:06 MODEL_FILE: model_lh  MODEL_SIZE: micro
20260305-02:14:06 Architecture:
MobileFacenet(
  (conv1): ConvBlock(
    (conv): Conv2d(3, 32, kernel_size=(3, 3), stride=(2, 2), padding=(1, 1), bias=False)
    (bn): BatchNorm2d(32, eps=1e-05, momentum=0.1, affine=True, track_running_stats=True)
    (prelu): PReLU(num_parameters=32)
  )
  (dw_conv1): ConvBlock(
    (conv): Conv2d(32, 32, kernel_size=(3, 3), stride=(1, 1), padding=(1, 1), groups=32, bias=False)
    (bn): BatchNorm2d(32, eps=1e-05, momentum=0.1, affine=True, track_running_stats=True)
    (prelu): PReLU(num_parameters=32)
  )
  (blocks): Sequential(
    (0): Bottleneck(
      (conv): Sequential(
        (0): Conv2d(32, 64, kernel_size=(1, 1), stride=(1, 1), bias=False)
        (1): BatchNorm2d(64, eps=1e-05, momentum=0.1, affine=True, track_running_stats=True)
        (2): PReLU(num_parameters=64)
        (3): Conv2d(64, 64, kernel_size=(3, 3), stride=(2, 2), padding=(1, 1), groups=64, bias=False)
        (4): BatchNorm2d(64, eps=1e-05, momentum=0.1, affine=True, track_running_stats=True)
        (5): PReLU(num_parameters=64)
        (6): SEModule(
          (fc): Sequential(
            (0): AdaptiveAvgPool2d(output_size=1)
            (1): Conv2d(64, 16, kernel_size=(1, 1), stride=(1, 1), bias=False)
            (2): ReLU(inplace=True)
            (3): Conv2d(16, 64, kernel_size=(1, 1), stride=(1, 1), bias=False)
            (4): Sigmoid()
          )
        )
        (7): Conv2d(64, 16, kernel_size=(1, 1), stride=(1, 1), bias=False)
        (8): BatchNorm2d(16, eps=1e-05, momentum=0.1, affine=True, track_running_stats=True)
      )
    )
    (1): Bottleneck(
      (conv): Sequential(
        (0): Conv2d(16, 32, kernel_size=(1, 1), stride=(1, 1), bias=False)
        (1): BatchNorm2d(32, eps=1e-05, momentum=0.1, affine=True, track_running_stats=True)
        (2): PReLU(num_parameters=32)
        (3): Conv2d(32, 32, kernel_size=(3, 3), stride=(1, 1), padding=(1, 1), groups=32, bias=False)
        (4): BatchNorm2d(32, eps=1e-05, momentum=0.1, affine=True, track_running_stats=True)
        (5): PReLU(num_parameters=32)
        (6): SEModule(
          (fc): Sequential(
            (0): AdaptiveAvgPool2d(output_size=1)
            (1): Conv2d(32, 8, kernel_size=(1, 1), stride=(1, 1), bias=False)
            (2): ReLU(inplace=True)
            (3): Conv2d(8, 32, kernel_size=(1, 1), stride=(1, 1), bias=False)
            (4): Sigmoid()
          )
        )
        (7): Conv2d(32, 16, kernel_size=(1, 1), stride=(1, 1), bias=False)
        (8): BatchNorm2d(16, eps=1e-05, momentum=0.1, affine=True, track_running_stats=True)
      )
    )
    (2): Bottleneck(
      (conv): Sequential(
        (0): Conv2d(16, 32, kernel_size=(1, 1), stride=(1, 1), bias=False)
        (1): BatchNorm2d(32, eps=1e-05, momentum=0.1, affine=True, track_running_stats=True)
        (2): PReLU(num_parameters=32)
        (3): Conv2d(32, 32, kernel_size=(3, 3), stride=(2, 2), padding=(1, 1), groups=32, bias=False)
        (4): BatchNorm2d(32, eps=1e-05, momentum=0.1, affine=True, track_running_stats=True)
        (5): PReLU(num_parameters=32)
        (6): SEModule(
          (fc): Sequential(
            (0): AdaptiveAvgPool2d(output_size=1)
            (1): Conv2d(32, 8, kernel_size=(1, 1), stride=(1, 1), bias=False)
            (2): ReLU(inplace=True)
            (3): Conv2d(8, 32, kernel_size=(1, 1), stride=(1, 1), bias=False)
            (4): Sigmoid()
          )
        )
        (7): Conv2d(32, 32, kernel_size=(1, 1), stride=(1, 1), bias=False)
        (8): BatchNorm2d(32, eps=1e-05, momentum=0.1, affine=True, track_running_stats=True)
      )
    )
    (3): Bottleneck(
      (conv): Sequential(
        (0): Conv2d(32, 64, kernel_size=(1, 1), stride=(1, 1), bias=False)
        (1): BatchNorm2d(64, eps=1e-05, momentum=0.1, affine=True, track_running_stats=True)
        (2): PReLU(num_parameters=64)
        (3): Conv2d(64, 64, kernel_size=(3, 3), stride=(1, 1), padding=(1, 1), groups=64, bias=False)
        (4): BatchNorm2d(64, eps=1e-05, momentum=0.1, affine=True, track_running_stats=True)
        (5): PReLU(num_parameters=64)
        (6): SEModule(
          (fc): Sequential(
            (0): AdaptiveAvgPool2d(output_size=1)
            (1): Conv2d(64, 16, kernel_size=(1, 1), stride=(1, 1), bias=False)
            (2): ReLU(inplace=True)
            (3): Conv2d(16, 64, kernel_size=(1, 1), stride=(1, 1), bias=False)
            (4): Sigmoid()
          )
        )
        (7): Conv2d(64, 32, kernel_size=(1, 1), stride=(1, 1), bias=False)
        (8): BatchNorm2d(32, eps=1e-05, momentum=0.1, affine=True, track_running_stats=True)
      )
    )
    (4): Bottleneck(
      (conv): Sequential(
        (0): Conv2d(32, 64, kernel_size=(1, 1), stride=(1, 1), bias=False)
        (1): BatchNorm2d(64, eps=1e-05, momentum=0.1, affine=True, track_running_stats=True)
        (2): PReLU(num_parameters=64)
        (3): Conv2d(64, 64, kernel_size=(3, 3), stride=(2, 2), padding=(1, 1), groups=64, bias=False)
        (4): BatchNorm2d(64, eps=1e-05, momentum=0.1, affine=True, track_running_stats=True)
        (5): PReLU(num_parameters=64)
        (6): SEModule(
          (fc): Sequential(
            (0): AdaptiveAvgPool2d(output_size=1)
            (1): Conv2d(64, 16, kernel_size=(1, 1), stride=(1, 1), bias=False)
            (2): ReLU(inplace=True)
            (3): Conv2d(16, 64, kernel_size=(1, 1), stride=(1, 1), bias=False)
            (4): Sigmoid()
          )
        )
        (7): Conv2d(64, 48, kernel_size=(1, 1), stride=(1, 1), bias=False)
        (8): BatchNorm2d(48, eps=1e-05, momentum=0.1, affine=True, track_running_stats=True)
      )
    )
    (5): Bottleneck(
      (conv): Sequential(
        (0): Conv2d(48, 96, kernel_size=(1, 1), stride=(1, 1), bias=False)
        (1): BatchNorm2d(96, eps=1e-05, momentum=0.1, affine=True, track_running_stats=True)
        (2): PReLU(num_parameters=96)
        (3): Conv2d(96, 96, kernel_size=(3, 3), stride=(1, 1), padding=(1, 1), groups=96, bias=False)
        (4): BatchNorm2d(96, eps=1e-05, momentum=0.1, affine=True, track_running_stats=True)
        (5): PReLU(num_parameters=96)
        (6): SEModule(
          (fc): Sequential(
            (0): AdaptiveAvgPool2d(output_size=1)
            (1): Conv2d(96, 24, kernel_size=(1, 1), stride=(1, 1), bias=False)
            (2): ReLU(inplace=True)
            (3): Conv2d(24, 96, kernel_size=(1, 1), stride=(1, 1), bias=False)
            (4): Sigmoid()
          )
        )
        (7): Conv2d(96, 48, kernel_size=(1, 1), stride=(1, 1), bias=False)
        (8): BatchNorm2d(48, eps=1e-05, momentum=0.1, affine=True, track_running_stats=True)
      )
    )
    (6): Bottleneck(
      (conv): Sequential(
        (0): Conv2d(48, 96, kernel_size=(1, 1), stride=(1, 1), bias=False)
        (1): BatchNorm2d(96, eps=1e-05, momentum=0.1, affine=True, track_running_stats=True)
        (2): PReLU(num_parameters=96)
        (3): Conv2d(96, 96, kernel_size=(3, 3), stride=(1, 1), padding=(1, 1), groups=96, bias=False)
        (4): BatchNorm2d(96, eps=1e-05, momentum=0.1, affine=True, track_running_stats=True)
        (5): PReLU(num_parameters=96)
        (6): SEModule(
          (fc): Sequential(
            (0): AdaptiveAvgPool2d(output_size=1)
            (1): Conv2d(96, 24, kernel_size=(1, 1), stride=(1, 1), bias=False)
            (2): ReLU(inplace=True)
            (3): Conv2d(24, 96, kernel_size=(1, 1), stride=(1, 1), bias=False)
            (4): Sigmoid()
          )
        )
        (7): Conv2d(96, 48, kernel_size=(1, 1), stride=(1, 1), bias=False)
        (8): BatchNorm2d(48, eps=1e-05, momentum=0.1, affine=True, track_running_stats=True)
      )
    )
  )
  (conv2): ConvBlock(
    (conv): Conv2d(48, 96, kernel_size=(1, 1), stride=(1, 1), bias=False)
    (bn): BatchNorm2d(96, eps=1e-05, momentum=0.1, affine=True, track_running_stats=True)
    (prelu): PReLU(num_parameters=96)
  )
  (linear7): AdaptiveAvgPool2d(output_size=1)
  (linear1): ConvBlock(
    (conv): Conv2d(96, 64, kernel_size=(1, 1), stride=(1, 1), bias=False)
    (bn): BatchNorm2d(64, eps=1e-05, momentum=0.1, affine=True, track_running_stats=True)
  )
)
20260305-02:14:06 Backbone total params:     69,376
20260305-02:14:06 Backbone trainable params: 69,376
20260305-02:14:06 ArcMargin weight params:   676,608
20260305-02:14:06 Optimizer LR: 0.1  Milestones: [36, 52, 58]
20260305-02:14:06 Batch size: 512  Total epochs: 70
20260305-02:14:06 ============================================================
…
